…
Marking visual.ln_post.bias as not trainable
Marking token_embedding.weight as not trainable
Marking ln_final.weight as not trainable
Marking ln_final.bias as not trainable
Classification head for ViT-B-16 on DTDVal exists at checkpoints/ViT-B-16/head_DTDVal.pt
Loading classification head from checkpoints/ViT-B-16/head_DTDVal.pt
Trainable params: 589,824 / 112,406,064 (0.52%)

=== LoRA Config ===
  rank: 16
  alpha: 16
  dropout: 0.0
  target_modules: ['all-linear']
=== LoRA Model Architecture ===
ImageEncoder(
  (model): PeftModel(
    (base_model): LoraModel(
      (model): CLIP(
        (visual): VisionTransformer(
          (conv1): Conv2d(3, 768, kernel_size=(16, 16), stride=(16, 16), bias=False)
          (patch_dropout): Identity()
          (ln_pre): LayerNorm((768,), eps=1e-05, elementwise_affine=True)
          (transformer): Transformer(
            (resblocks): ModuleList(
              (0-11): 12 x ResidualAttentionBlock(
                (ln_1): LayerNorm((768,), eps=1e-05, elementwise_affine=True)
                (attn): lora.ParamWrapper(
                  parameter_name='in_proj_weight',
                  (base_layer): MultiheadAttention(
                    (out_proj): NonDynamicallyQuantizableLinear(in_features=768, out_features=768, bias=True)
                  )
                  (lora_dropout): ModuleDict(
                    (default): Identity()
                  )
                  (lora_A): ModuleDict(
                    (default): Linear(in_features=768, out_features=16, bias=False)
                  )
                  (lora_B): ModuleDict(
                    (default): Linear(in_features=16, out_features=2304, bias=False)
                  )
                  (lora_embedding_A): ParameterDict()
                  (lora_embedding_B): ParameterDict()
                  (lora_magnitude_vector): ModuleDict()
                )
                (ls_1): Identity()
                (ln_2): LayerNorm((768,), eps=1e-05, elementwise_affine=True)
                (mlp): Sequential(
                  (c_fc): Linear(in_features=768, out_features=3072, bias=True)
                  (gelu): QuickGELU()
                  (c_proj): Linear(in_features=3072, out_features=768, bias=True)
                )
                (ls_2): Identity()
              )
            )
          )
          (ln_post): LayerNorm((768,), eps=1e-05, elementwise_affine=True)
        )
        (token_embedding): Embedding(49408, 512)
        (ln_final): LayerNorm((512,), eps=1e-05, elementwise_affine=True)
      )
    )
  )
)
===============================